…
Tokens: ['[CLS]', 'i', 'feel', 'empty', 'when', 'the', 'baby', 'isn', '##t', 'there', '[SEP]', '[PAD]', '[PAD]', '[PAD]', '[PAD]', '[PAD]', '[PAD]', '[PAD]', '[PAD]', '[PAD]']
Input IDs (first 20): [101, 1045, 2514, 4064, 2043, 1996, 3336, 3475, 2102, 2045, 102, 0, 0, 0, 0, 0, 0, 0, 0, 0]
Attention mask (first 20): [1, 1, 1, 1, 1, 1, 1, 1, 1, 1, 1, 0, 0, 0, 0, 0, 0, 0, 0, 0]
input_ids: torch.Size([32, 128])
attention_mask: torch.Size([32, 128])
label: torch.Size([32])
Trainable params: 66,958,086 / 66,958,086 (100.0%)
DistilBertForSequenceClassification(
  (distilbert): DistilBertModel(
    (embeddings): Embeddings(
      (word_embeddings): Embedding(30522, 768, padding_idx=0)
      (position_embeddings): Embedding(512, 768)
      (LayerNorm): LayerNorm((768,), eps=1e-12, elementwise_affine=True)
      (dropout): Dropout(p=0.1, inplace=False)
    )
    (transformer): Transformer(
      (layer): ModuleList(
        (0-5): 6 x TransformerBlock(
          (attention): DistilBertSelfAttention(
            (q_lin): Linear(in_features=768, out_features=768, bias=True)
            (k_lin): Linear(in_features=768, out_features=768, bias=True)
            (v_lin): Linear(in_features=768, out_features=768, bias=True)
            (out_lin): Linear(in_features=768, out_features=768, bias=True)
            (dropout): Dropout(p=0.1, inplace=False)
          )
          (sa_layer_norm): LayerNorm((768,), eps=1e-12, elementwise_affine=True)
          (ffn): FFN(
            (dropout): Dropout(p=0.1, inplace=False)
            (lin1): Linear(in_features=768, out_features=3072, bias=True)
            (lin2): Linear(in_features=3072, out_features=768, bias=True)
            (activation): GELUActivation()
          )
          (output_layer_norm): LayerNorm((768,), eps=1e-12, elementwise_affine=True)
        )
      )
    )
  )
  (pre_classifier): Linear(in_features=768, out_features=768, bias=True)
  (classifier): Linear(in_features=768, out_features=6, bias=True)
  (dropout): Dropout(p=0.4, inplace=False)
)
Class weights (sqrt): {'sadness': '0.674', 'joy': '0.630', 'love': '1.278', 'anger': '0.992', 'fear': '1.048', 'surprise': '1.378'}

=================================================================
  Strategy: Freeze Backbone
  Trainable params: 595,206 / 66,958,086 (0.9%)
  Anti-overfitting: label_smoothing=0.1, dropout=0.4,
…
